The model summary is as follows 


----------------------------------------------------------------
        Layer (type)               Output Shape         Param #
================================================================
            Conv2d-1          [-1, 256, 64, 64]           4,096
            Conv2d-2          [-1, 256, 64, 64]         589,824
       BatchNorm2d-3          [-1, 256, 64, 64]             512
              ReLU-4          [-1, 256, 64, 64]               0
            Conv2d-5          [-1, 512, 32, 32]       2,097,152
       BatchNorm2d-6          [-1, 512, 32, 32]           1,024
              ReLU-7          [-1, 512, 32, 32]               0
            Conv2d-8          [-1, 512, 32, 32]       2,359,296
       BatchNorm2d-9          [-1, 512, 32, 32]           1,024
             ReLU-10          [-1, 512, 32, 32]               0
           Conv2d-11         [-1, 1024, 16, 16]       8,388,608
      BatchNorm2d-12         [-1, 1024, 16, 16]           2,048
             ReLU-13         [-1, 1024, 16, 16]               0
           Conv2d-14         [-1, 1024, 16, 16]       9,437,184
      BatchNorm2d-15         [-1, 1024, 16, 16]           2,048
             ReLU-16         [-1, 1024, 16, 16]               0
           Conv2d-17           [-1, 2048, 8, 8]      33,554,432
      BatchNorm2d-18           [-1, 2048, 8, 8]           4,096
             ReLU-19           [-1, 2048, 8, 8]               0
           Conv2d-20           [-1, 2048, 8, 8]      37,748,736
      BatchNorm2d-21           [-1, 2048, 8, 8]           4,096
             ReLU-22           [-1, 2048, 8, 8]               0
           Conv2d-23           [-1, 4096, 4, 4]     134,217,728
      BatchNorm2d-24           [-1, 4096, 4, 4]           8,192
             ReLU-25           [-1, 4096, 4, 4]               0
           Conv2d-26           [-1, 4096, 4, 4]     150,994,944
      BatchNorm2d-27           [-1, 4096, 4, 4]           8,192
             ReLU-28           [-1, 4096, 4, 4]               0
           Conv2d-29           [-1, 4096, 4, 4]      16,777,216
             ReLU-30           [-1, 4096, 4, 4]               0
  ConvTranspose3d-31        [-1, 2048, 2, 4, 4]       4,194,304
             ReLU-32        [-1, 2048, 2, 4, 4]               0
  ConvTranspose3d-33        [-1, 1024, 4, 8, 8]     134,217,728
      BatchNorm3d-34        [-1, 1024, 4, 8, 8]           2,048
             ReLU-35        [-1, 1024, 4, 8, 8]               0
  ConvTranspose3d-36       [-1, 512, 8, 16, 16]      33,554,432
      BatchNorm3d-37       [-1, 512, 8, 16, 16]           1,024
             ReLU-38       [-1, 512, 8, 16, 16]               0
  ConvTranspose3d-39       [-1, 512, 8, 16, 16]       7,077,888
      BatchNorm3d-40       [-1, 512, 8, 16, 16]           1,024
             ReLU-41       [-1, 512, 8, 16, 16]               0
  ConvTranspose3d-42      [-1, 256, 16, 32, 32]       8,388,608
      BatchNorm3d-43      [-1, 256, 16, 32, 32]             512
             ReLU-44      [-1, 256, 16, 32, 32]               0
  ConvTranspose3d-45      [-1, 256, 16, 32, 32]       1,769,472
      BatchNorm3d-46      [-1, 256, 16, 32, 32]             512
             ReLU-47      [-1, 256, 16, 32, 32]               0
  ConvTranspose3d-48      [-1, 128, 32, 64, 64]       2,097,152
      BatchNorm3d-49      [-1, 128, 32, 64, 64]             256
             ReLU-50      [-1, 128, 32, 64, 64]               0
  ConvTranspose3d-51      [-1, 128, 32, 64, 64]         442,368
      BatchNorm3d-52      [-1, 128, 32, 64, 64]             256
             ReLU-53      [-1, 128, 32, 64, 64]               0
  ConvTranspose3d-54     [-1, 64, 64, 128, 128]         524,288
      BatchNorm3d-55     [-1, 64, 64, 128, 128]             128
             ReLU-56     [-1, 64, 64, 128, 128]               0
  ConvTranspose3d-57     [-1, 64, 64, 128, 128]         110,592
      BatchNorm3d-58     [-1, 64, 64, 128, 128]             128
             ReLU-59     [-1, 64, 64, 128, 128]               0
           Conv3d-60      [-1, 1, 64, 128, 128]              64
             ReLU-61      [-1, 1, 64, 128, 128]               0
           Conv2d-62         [-1, 46, 128, 128]           2,944
================================================================
Total params: 588,586,176
Trainable params: 588,586,176
Non-trainable params: 0
----------------------------------------------------------------
Input size (MB): 0.06
Forward/backward pass size (MB): 4186.75
Params size (MB): 2245.28
Estimated Total Size (MB): 6432.09
----------------------------------------------------------------

…
